…
/exps/exp1
I 05.19/20:24:05 main.py:24  ] => PyTorch Version: 2.5.1
I 05.19/20:24:05 init.py:34  ] Running on GPU0
I 05.19/20:24:07 init.py:65  ] => Model Name: TransNet [pretrained: None]
I 05.19/20:24:07 init.py:66  ] => Model Config: compression ratio=1/4; input shape=(2, 64, 64); input dim=8192
I 05.19/20:24:07 init.py:69  ] => Model Flops: 168.133M
I 05.19/20:24:07 init.py:70  ] => Model Params Num: 34.094M

I 05.19/20:24:07 init.py:71  ] 
**********
Transformer(
  (encoder): TransformerEncoder(
    (layer): TransformerEncoderLayer(
      (self_attn): MultiheadAttention(
        (out_proj): Linear(in_features=64, out_features=64, bias=True)
      )
      (linear1): Linear(in_features=64, out_features=2048, bias=True)
      (dropout): Dropout(p=0.0, inplace=False)
      (linear2): Linear(in_features=2048, out_features=64, bias=True)
      (norm1): LayerNorm((64,), eps=1e-05, elementwise_affine=True)
      (norm2): LayerNorm((64,), eps=1e-05, elementwise_affine=True)
      (dropout1): Dropout(p=0.0, inplace=False)
      (dropout2): Dropout(p=0.0, inplace=False)
    )
  )
  (decoder): TransformerDecoder(
    (layer): TransformerDecoderLayer(
      (self_attn): MultiheadAttention(
        (out_proj): Linear(in_features=64, out_features=64, bias=True)
      )
      (multihead_attn): MultiheadAttention(
        (out_proj): Linear(in_features=64, out_features=64, bias=True)
      )
      (linear1): Linear(in_features=64, out_features=2048, bias=True)
      (dropout): Dropout(p=0.0, inplace=False)
      (linear2): Linear(in_features=2048, out_features=64, bias=True)
      (norm1): LayerNorm((64,), eps=1e-05, elementwise_affine=True)
      (norm2): LayerNorm((64,), eps=1e-05, elementwise_affine=True)
      (norm3): LayerNorm((64,), eps=1e-05, elementwise_affine=True)
      (dropout1): Dropout(p=0.0, inplace=False)
      (dropout2): Dropout(p=0.0, inplace=False)
      (dropout3): Dropout(p=0.0, inplace=False)
    )
    (norm): LayerNorm((64,), eps=1e-05, elementwise_affine=True)
  )
  (fc_encoder): Linear(in_features=8192, out_features=2048, bias=True)
  (fc_decoder): Linear(in_features=2048, out_features=8192, bias=True)
)
**********

I 05.19/20:24:09 solver.py:151 ] => Train  Loss: 1.4888e+00

I 05.19/20:24:11 solver.py:151 ] => Train  Loss: 1.4015e+00

I 05.19/20:24:13 solver.py:151 ] => Train  Loss: 1.2107e+00

I 05.19/20:24:15 solver.py:151 ] => Train  Loss: 9.7841e-01

I 05.19/20:24:17 solver.py:151 ] => Train  Loss: 7.7037e-01

I 05.19/20:24:19 solver.py:151 ] => Train  Loss: 6.0558e-01
…
