…
exps/exp4
I 05.20/03:32:23 main.py:24  ] => PyTorch Version: 2.5.1
I 05.20/03:32:23 init.py:37  ] Running on GPU 3
I 05.20/03:32:28 init.py:68  ] => Model Name: TransNet [pretrained: None]
I 05.20/03:32:28 init.py:69  ] => Model Config: compression ratio=1/4; input shape=(2, 64, 64); input dim=8192
I 05.20/03:32:28 init.py:72  ] => Model Flops: 168.133M
I 05.20/03:32:28 init.py:73  ] => Model Params Num: 34.094M

I 05.20/03:32:28 init.py:74  ] 
**********
Transformer(
  (encoder): TransformerEncoder(
    (layer): TransformerEncoderLayer(
      (self_attn): MultiheadAttention(
        (out_proj): Linear(in_features=64, out_features=64, bias=True)
      )
      (linear1): Linear(in_features=64, out_features=2048, bias=True)
      (dropout): Dropout(p=0.0, inplace=False)
      (linear2): Linear(in_features=2048, out_features=64, bias=True)
      (norm1): LayerNorm((64,), eps=1e-05, elementwise_affine=True)
      (norm2): LayerNorm((64,), eps=1e-05, elementwise_affine=True)
      (dropout1): Dropout(p=0.0, inplace=False)
      (dropout2): Dropout(p=0.0, inplace=False)
    )
  )
  (decoder): TransformerDecoder(
    (layer): TransformerDecoderLayer(
      (self_attn): MultiheadAttention(
        (out_proj): Linear(in_features=64, out_features=64, bias=True)
      )
      (multihead_attn): MultiheadAttention(
        (out_proj): Linear(in_features=64, out_features=64, bias=True)
      )
      (linear1): Linear(in_features=64, out_features=2048, bias=True)
      (dropout): Dropout(p=0.0, inplace=False)
      (linear2): Linear(in_features=2048, out_features=64, bias=True)
      (norm1): LayerNorm((64,), eps=1e-05, elementwise_affine=True)
      (norm2): LayerNorm((64,), eps=1e-05, elementwise_affine=True)
      (norm3): LayerNorm((64,), eps=1e-05, elementwise_affine=True)
      (dropout1): Dropout(p=0.0, inplace=False)
      (dropout2): Dropout(p=0.0, inplace=False)
      (dropout3): Dropout(p=0.0, inplace=False)
    )
    (norm): LayerNorm((64,), eps=1e-05, elementwise_affine=True)
  )
  (fc_encoder): Linear(in_features=8192, out_features=2048, bias=True)
  (fc_decoder): Linear(in_features=2048, out_features=8192, bias=True)
)
**********

I 05.20/03:32:31 solver.py:141 ] Epoch: [1/400][20/79] lr: 1.27e-06 | MSE loss: 1.4989e+00 | time: 0.128
I 05.20/03:32:33 solver.py:141 ] Epoch: [1/400][40/79] lr: 2.53e-06 | MSE loss: 1.4958e+00 | time: 0.116
I 05.20/03:32:35 solver.py:141 ] Epoch: [1/400][60/79] lr: 3.80e-06 | MSE loss: 1.4906e+00 | time: 0.112
I 05.20/03:32:37 solver.py:151 ] => Train  Loss: 1.4834e+00
…
