…
exps/exp3
I 05.19/21:17:10 main.py:24  ] => PyTorch Version: 2.5.1
I 05.19/21:17:11 init.py:37  ] Running on GPU 4
I 05.19/21:17:12 init.py:68  ] => Model Name: TransNet [pretrained: None]
I 05.19/21:17:12 init.py:69  ] => Model Config: compression ratio=1/4; input shape=(2, 64, 64); input dim=8192
I 05.19/21:17:12 init.py:72  ] => Model Flops: 168.133M
I 05.19/21:17:12 init.py:73  ] => Model Params Num: 34.094M

I 05.19/21:17:12 init.py:74  ] 
**********
Transformer(
  (encoder): TransformerEncoder(
    (layer): TransformerEncoderLayer(
      (self_attn): MultiheadAttention(
        (out_proj): Linear(in_features=64, out_features=64, bias=True)
      )
      (linear1): Linear(in_features=64, out_features=2048, bias=True)
      (dropout): Dropout(p=0.0, inplace=False)
      (linear2): Linear(in_features=2048, out_features=64, bias=True)
      (norm1): LayerNorm((64,), eps=1e-05, elementwise_affine=True)
      (norm2): LayerNorm((64,), eps=1e-05, elementwise_affine=True)
      (dropout1): Dropout(p=0.0, inplace=False)
      (dropout2): Dropout(p=0.0, inplace=False)
    )
  )
  (decoder): TransformerDecoder(
    (layer): TransformerDecoderLayer(
      (self_attn): MultiheadAttention(
        (out_proj): Linear(in_features=64, out_features=64, bias=True)
      )
      (multihead_attn): MultiheadAttention(
        (out_proj): Linear(in_features=64, out_features=64, bias=True)
      )
      (linear1): Linear(in_features=64, out_features=2048, bias=True)
      (dropout): Dropout(p=0.0, inplace=False)
      (linear2): Linear(in_features=2048, out_features=64, bias=True)
      (norm1): LayerNorm((64,), eps=1e-05, elementwise_affine=True)
      (norm2): LayerNorm((64,), eps=1e-05, elementwise_affine=True)
      (norm3): LayerNorm((64,), eps=1e-05, elementwise_affine=True)
      (dropout1): Dropout(p=0.0, inplace=False)
      (dropout2): Dropout(p=0.0, inplace=False)
      (dropout3): Dropout(p=0.0, inplace=False)
    )
    (norm): LayerNorm((64,), eps=1e-05, elementwise_affine=True)
  )
  (fc_encoder): Linear(in_features=8192, out_features=2048, bias=True)
  (fc_decoder): Linear(in_features=2048, out_features=8192, bias=True)
)
**********

I 05.19/21:17:14 solver.py:141 ] Epoch: [1/400][20/45] lr: 5.56e-06 | MSE loss: 1.4952e+00 | time: 0.045
I 05.19/21:17:14 solver.py:141 ] Epoch: [1/400][40/45] lr: 1.11e-05 | MSE loss: 1.4779e+00 | time: 0.033
I 05.19/21:17:15 solver.py:151 ] => Train  Loss: 1.4713e+00

I 05.19/21:17:16 solver.py:141 ] Epoch: [2/400][20/45] lr: 1.81e-05 | MSE loss: 1.3522e+00 | time: 0.031
…
