…
I 05.20/15:49:44 main.py:24  ] => PyTorch Version: 2.5.1
I 05.20/15:49:44 init.py:13  ] Random seed set to 2026
I 05.20/15:49:44 init.py:38  ] Running on GPU 3
I 05.20/15:49:47 init.py:69  ] => Model Name: TransNet [pretrained: None]
I 05.20/15:49:47 init.py:70  ] => Model Config: compression ratio=1/4; input shape=(2, 64, 64); input dim=8192
I 05.20/15:49:47 init.py:73  ] => Model Flops: 168.133M
I 05.20/15:49:47 init.py:74  ] => Model Params Num: 34.094M

I 05.20/15:49:47 init.py:75  ] 
**********
Transformer(
  (encoder): TransformerEncoder(
    (layer): TransformerEncoderLayer(
      (self_attn): MultiheadAttention(
        (out_proj): Linear(in_features=64, out_features=64, bias=True)
      )
      (linear1): Linear(in_features=64, out_features=2048, bias=True)
      (dropout): Dropout(p=0.0, inplace=False)
      (linear2): Linear(in_features=2048, out_features=64, bias=True)
      (norm1): LayerNorm((64,), eps=1e-05, elementwise_affine=True)
      (norm2): LayerNorm((64,), eps=1e-05, elementwise_affine=True)
      (dropout1): Dropout(p=0.0, inplace=False)
      (dropout2): Dropout(p=0.0, inplace=False)
    )
  )
  (decoder): TransformerDecoder(
    (layer): TransformerDecoderLayer(
      (self_attn): MultiheadAttention(
        (out_proj): Linear(in_features=64, out_features=64, bias=True)
      )
      (multihead_attn): MultiheadAttention(
        (out_proj): Linear(in_features=64, out_features=64, bias=True)
      )
      (linear1): Linear(in_features=64, out_features=2048, bias=True)
      (dropout): Dropout(p=0.0, inplace=False)
      (linear2): Linear(in_features=2048, out_features=64, bias=True)
      (norm1): LayerNorm((64,), eps=1e-05, elementwise_affine=True)
      (norm2): LayerNorm((64,), eps=1e-05, elementwise_affine=True)
      (norm3): LayerNorm((64,), eps=1e-05, elementwise_affine=True)
      (dropout1): Dropout(p=0.0, inplace=False)
      (dropout2): Dropout(p=0.0, inplace=False)
      (dropout3): Dropout(p=0.0, inplace=False)
    )
    (norm): LayerNorm((64,), eps=1e-05, elementwise_affine=True)
  )
  (fc_encoder): Linear(in_features=8192, out_features=2048, bias=True)
  (fc_decoder): Linear(in_features=2048, out_features=8192, bias=True)
)
**********

I 05.20/15:49:49 solver.py:151 ] => Train  Loss: 1.5007e+00

I 05.20/15:49:52 solver.py:151 ] => Train  Loss: 1.4947e+00

I 05.20/15:49:55 solver.py:151 ] => Train  Loss: 1.4816e+00

I 05.20/15:49:57 solver.py:151 ] => Train  Loss: 1.4610e+00

I 05.20/15:49:59 solver.py:151 ] => Train  Loss: 1.4314e+00

I 05.20/15:50:02 solver.py:151 ] => Train  Loss: 1.3919e+00
…
