…
se_1000ep
I 05.20/03:35:37 main.py:24  ] => PyTorch Version: 2.5.1
I 05.20/03:35:37 init.py:37  ] Running on GPU 5
I 05.20/03:35:42 init.py:68  ] => Model Name: TransNet [pretrained: None]
I 05.20/03:35:42 init.py:69  ] => Model Config: compression ratio=1/4; input shape=(2, 64, 64); input dim=8192
I 05.20/03:35:42 init.py:72  ] => Model Flops: 168.133M
I 05.20/03:35:42 init.py:73  ] => Model Params Num: 34.094M

I 05.20/03:35:42 init.py:74  ] 
**********
Transformer(
  (encoder): TransformerEncoder(
    (layer): TransformerEncoderLayer(
      (self_attn): MultiheadAttention(
        (out_proj): Linear(in_features=64, out_features=64, bias=True)
      )
      (linear1): Linear(in_features=64, out_features=2048, bias=True)
      (dropout): Dropout(p=0.0, inplace=False)
      (linear2): Linear(in_features=2048, out_features=64, bias=True)
      (norm1): LayerNorm((64,), eps=1e-05, elementwise_affine=True)
      (norm2): LayerNorm((64,), eps=1e-05, elementwise_affine=True)
      (dropout1): Dropout(p=0.0, inplace=False)
      (dropout2): Dropout(p=0.0, inplace=False)
    )
  )
  (decoder): TransformerDecoder(
    (layer): TransformerDecoderLayer(
      (self_attn): MultiheadAttention(
        (out_proj): Linear(in_features=64, out_features=64, bias=True)
      )
      (multihead_attn): MultiheadAttention(
        (out_proj): Linear(in_features=64, out_features=64, bias=True)
      )
      (linear1): Linear(in_features=64, out_features=2048, bias=True)
      (dropout): Dropout(p=0.0, inplace=False)
      (linear2): Linear(in_features=2048, out_features=64, bias=True)
      (norm1): LayerNorm((64,), eps=1e-05, elementwise_affine=True)
      (norm2): LayerNorm((64,), eps=1e-05, elementwise_affine=True)
      (norm3): LayerNorm((64,), eps=1e-05, elementwise_affine=True)
      (dropout1): Dropout(p=0.0, inplace=False)
      (dropout2): Dropout(p=0.0, inplace=False)
      (dropout3): Dropout(p=0.0, inplace=False)
    )
    (norm): LayerNorm((64,), eps=1e-05, elementwise_affine=True)
  )
  (fc_encoder): Linear(in_features=8192, out_features=2048, bias=True)
  (fc_decoder): Linear(in_features=2048, out_features=8192, bias=True)
)
**********

I 05.20/03:35:46 solver.py:141 ] Epoch: [1/1000][20/79] lr: 5.06e-07 | MSE loss: 1.5001e+00 | time: 0.135
I 05.20/03:35:48 solver.py:141 ] Epoch: [1/1000][40/79] lr: 1.01e-06 | MSE loss: 1.4990e+00 | time: 0.119
I 05.20/03:35:50 solver.py:141 ] Epoch: [1/1000][60/79] lr: 1.52e-06 | MSE loss: 1.4970e+00 | time: 0.114
I 05.20/03:35:52 solver.py:151 ] => Train  Loss: 1.4943e+00
…
