…
I 05.21/19:18:01 init.py:159 ] pretrained model loaded from /storage/hujiacong/zxd/Huawei/TransNet/exps/COST2100/in/seed42/base/checkpoints/best_nmse.pth
I 05.21/19:18:01 init.py:167 ] => Model Name: TransNet [pretrained: /storage/hujiacong/zxd/Huawei/TransNet/exps/COST2100/in/seed42/base/checkpoints/best_nmse.pth]
I 05.21/19:18:01 init.py:168 ] => Model Config: compression ratio=1/4; input shape=(2, 32, 32); input dim=2048
I 05.21/19:18:01 init.py:171 ] => Model Flops: 3.5742e+01M
I 05.21/19:18:01 init.py:172 ] => Model Params Num: 2.6290e+00M

I 05.21/19:18:01 init.py:173 ] 
**********
Transformer(
  (encoder): TransformerEncoder(
    (layer): TransformerEncoderLayer(
      (self_attn): MultiheadAttention(
        (out_proj): Linear(in_features=64, out_features=64, bias=True)
      )
      (linear1): Linear(in_features=64, out_features=2048, bias=True)
      (dropout): Dropout(p=0.0, inplace=False)
      (linear2): Linear(in_features=2048, out_features=64, bias=True)
      (norm1): LayerNorm((64,), eps=1e-05, elementwise_affine=True)
      (norm2): LayerNorm((64,), eps=1e-05, elementwise_affine=True)
      (dropout1): Dropout(p=0.0, inplace=False)
      (dropout2): Dropout(p=0.0, inplace=False)
    )
  )
  (decoder): TransformerDecoder(
    (layer): TransformerDecoderLayer(
      (self_attn): MultiheadAttention(
        (out_proj): Linear(in_features=64, out_features=64, bias=True)
      )
      (multihead_attn): MultiheadAttention(
        (out_proj): Linear(in_features=64, out_features=64, bias=True)
      )
      (linear1): Linear(in_features=64, out_features=2048, bias=True)
      (dropout): Dropout(p=0.0, inplace=False)
      (linear2): Linear(in_features=2048, out_features=64, bias=True)
      (norm1): LayerNorm((64,), eps=1e-05, elementwise_affine=True)
      (norm2): LayerNorm((64,), eps=1e-05, elementwise_affine=True)
      (norm3): LayerNorm((64,), eps=1e-05, elementwise_affine=True)
      (dropout1): Dropout(p=0.0, inplace=False)
      (dropout2): Dropout(p=0.0, inplace=False)
      (dropout3): Dropout(p=0.0, inplace=False)
    )
    (norm): LayerNorm((64,), eps=1e-05, elementwise_affine=True)
  )
  (fc_encoder): Linear(in_features=2048, out_features=512, bias=True)
  (fc_decoder): Linear(in_features=512, out_features=2048, bias=True)
)
**********

I 05.21/19:18:06 init.py:97  ] => LoRA enabled on fc_decoder (rank=4, alpha=8); 2/38 params trainable
I 05.21/19:18:06 init.py:117 ] 
base_model.model.encoder.layer.self_attn.in_proj_weight           False    (192, 64)
base_model.model.encoder.layer.self_attn.in_proj_bias             False    (192,)
base_model.model.encoder.layer.self_attn.out_proj.weight          False    (64, 64)
…
